…
com/a-/AOh14GhBKugg3AwKzSGhYpyiD5vdS8SCH9E9MnMIsAWQ=s64","userId":"13125594217489508006"},"user_tz":-180},"id":"gZJI4lEYkIwS","outputId":"79afe50a-9863-4599-b42c-4e8698f66ee0"},"outputs":[{"name":"stdout","output_type":"stream","text":["Model: \"model\"\n","__________________________________________________________________________________________________\n","Layer (type)                    Output Shape         Param #     Connected to                     \n","==================================================================================================\n","input (InputLayer)              [(None, 100, 100, 3) 0                                            \n","__________________________________________________________________________________________________\n","conv2d_10 (Conv2D)              (None, 100, 100, 16) 448         input[0][0]                      \n","__________________________________________________________________________________________________\n","activation (Activation)         (None, 100, 100, 16) 0           conv2d_10[0][0]                  \n","__________________________________________________________________________________________________\n","conv2d_11 (Conv2D)              (None, 100, 100, 16) 2320        activation[0][0]                 \n","__________________________________________________________________________________________________\n","conv2d_9 (Conv2D)               (None, 100, 100, 16) 208         input[0][0]                      \n","__________________________________________________________________________________________________\n","add (Add)                       (None, 100, 100, 16) 0           conv2d_11[0][0]                  \n","                                                                 conv2d_9[0][0]                   \n","__________________________________________________________________________________________________\n","activation_1 (Activation)       (None, 100, 100, 16) 0           add[0][0]                        \n","__________________________________________________________________________________________________\n","max_pooling2d_3 (MaxPooling2D)  (None, 50, 50, 16)   0           activation_1[0][0]               \n","__________________________________________________________________________________________________\n","conv2d_13 (Conv2D)              (None, 50, 50, 32)   4640        max_pooling2d_3[0][0]            \n","__________________________________________________________________________________________________\n","activation_2 (Activation)       (None, 50, 50, 32)   0           conv2d_13[0][0]                  \n","__________________________________________________________________________________________________\n","conv2d_14 (Conv2D)              (None, 50, 50, 32)   9248        activation_2[0][0]               \n","__________________________________________________________________________________________________\n","conv2d_12 (Conv2D)              (None, 50, 50, 32)   2080        max_pooling2d_3[0][0]            \n","__________________________________________________________________________________________________\n","add_1 (Add)                     (None, 50, 50, 32)   0           conv2d_14[0][0]                  \n","                                                                 conv2d_12[0][0]                  \n","__________________________________________________________________________________________________\n","activation_3 (Activation)       (None, 50, 50, 32)   0           add_1[0][0]                      \n","__________________________________________________________________________________________________\n","max_pooling2d_4 (MaxPooling2D)  (None, 25, 25, 32)   0           activation_3[0][0]               \n","__________________________________________________________________________________________________\n","conv2d_16 (Conv2D)              (None, 25, 25, 64)   18496       max_pooling2d_4[0][0]            \n","__________________________________________________________________________________________________\n","activation_4 (Activation)       (None, 25, 25, 64)   0           conv2d_16[0][0]                  \n","__________________________________________________________________________________________________\n","conv2d_17 (Conv2D)              (None, 25, 25, 64)   36928       activation_4[0][0]               \n","__________________________________________________________________________________________________\n","activation_5 (Activation)       (None, 25, 25, 64)   0           conv2d_17[0][0]                  \n","__________________________________________________________________________________________________\n","conv2d_18 (Conv2D)              (None, 25, 25, 64)   36928       activation_5[0][0]               \n","__________________________________________________________________________________________________\n","conv2d_15 (Conv2D)              (None, 25, 25, 64)   8256        max_pooling2d_4[0][0]            \n","__________________________________________________________________________________________________\n","add_2 (Add)                     (None, 25, 25, 64)   0           conv2d_18[0][0]                  \n","                                                                 conv2d_15[0][0]                  \n","__________________________________________________________________________________________________\n","activation_6 (Activation)       (None, 25, 25, 64)   0           add_2[0][0]                      \n","__________________________________________________________________________________________________\n","max_pooling2d_5 (MaxPooling2D)  (None, 12, 12, 64)   0           activation_6[0][0]               \n","__________________________________________________________________________________________________\n","conv2d_20 (Conv2D)              (None, 12, 12, 128)  73856       max_pooling2d_5[0][0]            \n","__________________________________________________________________________________________________\n","activation_7 (Activation)       (None, 12, 12, 128)  0           conv2d_20[0][0]                  \n","__________________________________________________________________________________________________\n","conv2d_21 (Conv2D)              (None, 12, 12, 128)  147584      activation_7[0][0]               \n","__________________________________________________________________________________________________\n","activation_8 (Activation)       (None, 12, 12, 128)  0           conv2d_21[0][0]                  \n","__________________________________________________________________________________________________\n","conv2d_22 (Conv2D)              (None, 12, 12, 128)  147584      activation_8[0][0]               \n","__________________________________________________________________________________________________\n","conv2d_19 (Conv2D)              (None, 12, 12, 128)  32896       max_pooling2d_5[0][0]            \n","__________________________________________________________________________________________________\n","add_3 (Add)                     (None, 12, 12, 128)  0           conv2d_22[0][0]                  \n","                                                                 conv2d_19[0][0]                  \n","__________________________________________________________________________________________________\n","activation_9 (Activation)       (None, 12, 12, 128)  0           add_3[0][0]                      \n","__________________________________________________________________________________________________\n","max_pooling2d_6 (MaxPooling2D)  (None, 6, 6, 128)    0           activation_9[0][0]               \n","__________________________________________________________________________________________________\n","conv2d_24 (Conv2D)              (None, 6, 6, 128)    147584      max_pooling2d_6[0][0]            \n","__________________________________________________________________________________________________\n","activation_10 (Activation)      (None, 6, 6, 128)    0           conv2d_24[0][0]                  \n","__________________________________________________________________________________________________\n","conv2d_25 (Conv2D)              (None, 6, 6, 128)    147584      activation_10[0][0]              \n","__________________________________________________________________________________________________\n","activation_11 (Activation)      (None, 6, 6, 128)    0           conv2d_25[0][0]                  \n","__________________________________________________________________________________________________\n","conv2d_26 (Conv2D)              (None, 6, 6, 128)    147584      activation_11[0][0]              \n","__________________________________________________________________________________________________\n","conv2d_23 (Conv2D)              (None, 6, 6, 128)    65664       max_pooling2d_6[0][0]            \n","__________________________________________________________________________________________________\n","add_4 (Add)                     (None, 6, 6, 128)    0           conv2d_26[0][0]                  \n","                                                                 conv2d_23[0][0]                  \n","__________________________________________________________________________________________________\n","activation_12 (Activation)      (None, 6, 6, 128)    0           add_4[0][0]                      \n","__________________________________________________________________________________________________\n","max_pooling2d_7 (MaxPooling2D)  (None, 3, 3, 128)    0           activation_12[0][0]              \n","__________________________________________________________________________________________________\n","average_pooling2d (AveragePooli (None, 1, 1, 128)    0           max_pooling2d_7[0][0]            \n","__________________________________________________________________________________________________\n","flatten_5 (Flatten)             (None, 128)          0           average_pooling2d[0][0]          \n","__________________________________________________________________________________________________\n","dense_12 (Dense)                (None, 256)          33024       flatten_5[0][0]                  \n","__________________________________________________________________________________________________\n","dense_13 (Dense)                (None, 128)          32896       dense_12[0][0]                   \n","__________________________________________________________________________________________________\n","categorical_output (Dense)      (None, 2)            258         dense_13[0][0]                   \n","==================================================================================================\n","Total params: 1,096,066\n","Trainable params: 1,096,066\n","Non-trainable params: 0\n","__________________________________________________________________________________________________\n"]}],"source":["def residual_block(x, filters, conv_num=3, act
…
