…
":["tuner = kt.Hyperband(model_builder2,\n","                     objective='val_accuracy',\n","                     max_epochs=10,\n","                     factor=3,\n","                     directory='vgg16',\n","                     project_name='project_vgg16')\n"],"execution_count":29,"outputs":[{"output_type":"stream","text":["Model: \"sequential\"\n","_________________________________________________________________\n","Layer (type)                 Output Shape              Param #   \n","=================================================================\n","conv2d (Conv2D)              (None, 100, 100, 32)      896       \n","_________________________________________________________________\n","activation (Activation)      (None, 100, 100, 32)      0         \n","_________________________________________________________________\n","conv2d_1 (Conv2D)            (None, 98, 98, 32)        9248      \n","_________________________________________________________________\n","activation_1 (Activation)    (None, 98, 98, 32)        0         \n","_________________________________________________________________\n","dropout (Dropout)            (None, 98, 98, 32)        0         \n","_________________________________________________________________\n","max_pooling2d (MaxPooling2D) (None, 49, 49, 32)        0         \n","_________________________________________________________________\n","conv2d_2 (Conv2D)            (None, 49, 49, 64)        18496     \n","_________________________________________________________________\n","activation_2 (Activation)    (None, 49, 49, 64)        0         \n","_________________________________________________________________\n","conv2d_3 (Conv2D)            (None, 47, 47, 64)        36928     \n","_________________________________________________________________\n","activation_3 (Activation)    (None, 47, 47, 64)        0         \n","_________________________________________________________________\n","max_pooling2d_1 (MaxPooling2 (None, 23, 23, 64)        0         \n","_________________________________________________________________\n","conv2d_4 (Conv2D)            (None, 23, 23, 128)       73856     \n","_________________________________________________________________\n","activation_4 (Activation)    (None, 23, 23, 128)       0         \n","_________________________________________________________________\n","conv2d_5 (Conv2D)            (None, 21, 21, 128)       147584    \n","_________________________________________________________________\n","activation_5 (Activation)    (None, 21, 21, 128)       0         \n","_________________________________________________________________\n","max_pooling2d_2 (MaxPooling2 (None, 10, 10, 128)       0         \n","_________________________________________________________________\n","conv2d_6 (Conv2D)            (None, 10, 10, 256)       295168    \n","_________________________________________________________________\n","activation_6 (Activation)    (None, 10, 10, 256)       0         \n","_________________________________________________________________\n","conv2d_7 (Conv2D)            (None, 8, 8, 256)         590080    \n","_________________________________________________________________\n","activation_7 (Activation)    (None, 8, 8, 256)         0         \n","_________________________________________________________________\n","max_pooling2d_3 (MaxPooling2 (None, 4, 4, 256)         0         \n","_________________________________________________________________\n","conv2d_8 (Conv2D)            (None, 4, 4, 256)         590080    \n","_________________________________________________________________\n","activation_8 (Activation)    (None, 4, 4, 256)         0         \n","_________________________________________________________________\n","conv2d_9 (Conv2D)            (None, 2, 2, 256)         590080    \n","_________________________________________________________________\n","activation_9 (Activation)    (None, 2, 2, 256)         0         \n","_________________________________________________________________\n","max_pooling2d_4 (MaxPooling2 (None, 1, 1, 256)         0         \n","_________________________________________________________________\n","flatten (Flatten)            (None, 256)               0         \n","_________________________________________________________________\n","dense (Dense)                (None, 2048)              526336    \n","_________________________________________________________________\n","activation_10 (Activation)   (None, 2048)              0         \n","_________________________________________________________________\n","dropout_1 (Dropout)          (None, 2048)              0         \n","_________________________________________________________________\n","dense_1 (Dense)              (None, 2048)              4196352   \n","_________________________________________________________________\n","activation_11 (Activation)   (None, 2048)              0         \n","_________________________________________________________________\n","dropout_2 (Dropout)          (None, 2048)              0         \n","_________________________________________________________________\n","dense_2 (Dense)              (None, 32)                65568     \n","_________________________________________________________________\n","category_output (Dense)      (None, 6)                 198       \n","=================================================================\n","Total params: 7,140,870\n","Trainable params: 7,140,870\n","Non-trainable params: 0\n","_________________________________________________________________\n","None\n"],"name":"stdout"}]},{"cell_type":"code","metadata":{"id":"0q6vXsTKQPKp","colab":{"base_uri":"https://localhost:8080/","height":1000},"outputId":"1f4566f
…
.get_best_hyperparameters(num_trials=1)[0]\n"],"execution_count":null,"outputs":[{"output_type":"display_data","data":{"text/html":["<span style=\"color:#4527A0\"><h1 style=\"font-size:18px\">Starting new trial</h1></span>"],"text/plain":["<IPython.core.display.HTML object>"]},"metadata":{"tags":[]}},{"output_type":"stream","text":["Model: \"sequential\"\n","_________________________________________________________________\n","Layer (type)                 Output Shape              Param #   \n","=================================================================\n","conv2d (Conv2D)              (None, 100, 100, 32)      896       \n","_________________________________________________________________\n","activation (Activation)      (None, 100, 100, 32)      0         \n","_________________________________________________________________\n","conv2d_1 (Conv2D)            (None, 98, 98, 32)        9248      \n","_________________________________________________________________\n","activation_1 (Activation)    (None, 98, 98, 32)        0         \n","_________________________________________________________________\n","dropout (Dropout)            (None, 98, 98, 32)        0         \n","_________________________________________________________________\n","max_pooling2d (MaxPooling2D) (None, 49, 49, 32)        0         \n","_________________________________________________________________\n","conv2d_2 (Conv2D)            (None, 49, 49, 64)        18496     \n","_________________________________________________________________\n","activation_2 (Activation)    (None, 49, 49, 64)        0         \n","_________________________________________________________________\n","conv2d_3 (Conv2D)            (None, 47, 47, 64)        36928     \n","_________________________________________________________________\n","activation_3 (Activation)    (None, 47, 47, 64)        0         \n","_________________________________________________________________\n","max_pooling2d_1 (MaxPooling2 (None, 23, 23, 64)        0         \n","_________________________________________________________________\n","conv2d_4 (Conv2D)            (None, 23, 23, 128)       73856     \n","_________________________________________________________________\n","activation_4 (Activation)    (None, 23, 23, 128)       0         \n","_________________________________________________________________\n","conv2d_5 (Conv2D)            (None, 21, 21, 128)       147584    \n","_________________________________________________________________\n","activation_5 (Activation)    (None, 21, 21, 128)       0         \n","_________________________________________________________________\n","max_pooling2d_2 (MaxPooling2 (None, 10, 10, 128)       0         \n","_________________________________________________________________\n","conv2d_6 (Conv2D)            (None, 10, 10, 256)       295168    \n","_________________________________________________________________\n","activation_6 (Activation)    (None, 10, 10, 256)       0         \n","_________________________________________________________________\n","conv2d_7 (Conv2D)            (None, 8, 8, 256)         590080    \n","_________________________________________________________________\n","activation_7 (Activation)    (None, 8, 8, 256)         0         \n","_________________________________________________________________\n","max_pooling2d_3 (MaxPooling2 (None, 4, 4, 256)         0         \n","_________________________________________________________________\n","conv2d_8 (Conv2D)            (None, 4, 4, 256)         590080    \n","_________________________________________________________________\n","activation_8 (Activation)    (None, 4, 4, 256)         0         \n","_________________________________________________________________\n","conv2d_9 (Conv2D)            (None, 2, 2, 256)         590080    \n","_________________________________________________________________\n","activation_9 (Activation)    (None, 2, 2, 256)         0         \n","_________________________________________________________________\n","max_pooling2d_4 (MaxPooling2 (None, 1, 1, 256)         0         \n","_________________________________________________________________\n","flatten (Flatten)            (None, 256)               0         \n","_________________________________________________________________\n","dense (Dense)                (None, 2048)              526336    \n","_________________________________________________________________\n","activation_10 (Activation)   (None, 2048)              0         \n","_________________________________________________________________\n","dropout_1 (Dropout)          (None, 2048)              0         \n","_________________________________________________________________\n","dense_1 (Dense)              (None, 2048)              4196352   \n","_________________________________________________________________\n","activation_11 (Activation)   (None, 2048)              0         \n","_________________________________________________________________\n","dropout_2 (Dropout)          (None, 2048)              0         \n","_________________________________________________________________\n","dense_2 (Dense)              (None, 160)               327840    \n","_________________________________________________________________\n","category_output (Dense)      (None, 6)                 966       \n","=================================================================\n","Total params: 7,403,910\n","Trainable params: 7,403,910\n","Non-trainable params: 0\n","_________________________________________________________________\n","None\n","Epoch 1/2\n","WARNING:tensorflow:multiprocessing can interact badly with TensorFlow, causing nondeterministic deadlocks. For high performance data pipe
…
