…
"output_type":"stream","text":["Model: \"model\"\n","__________________________________________________________________________________________________\n","Layer (type)                    Output Shape         Param #     Connected to                     \n","==================================================================================================\n","input (InputLayer)              [(None, 16000, 1)]   0                                            \n","__________________________________________________________________________________________________\n","conv1d_1 (Conv1D)               (None, 16000, 16)    64          input[0][0]                      \n","__________________________________________________________________________________________________\n","activation (Activation)         (None, 16000, 16)    0           conv1d_1[0][0]                   \n","__________________________________________________________________________________________________\n","conv1d_2 (Conv1D)               (None, 16000, 16)    784         activation[0][0]                 \n","__________________________________________________________________________________________________\n","conv1d (Conv1D)                 (None, 16000, 16)    32          input[0][0]                      \n","__________________________________________________________________________________________________\n","add (Add)                       (None, 16000, 16)    0           conv1d_2[0][0]                   \n","                                                                 conv1d[0][0]                     \n","__________________________________________________________________________________________________\n","activation_1 (Activation)       (None, 16000, 16)    0           add[0][0]                        \n","__________________________________________________________________________________________________\n","max_pooling1d (MaxPooling1D)    (None, 8000, 16)     0           activation_1[0][0]               \n","__________________________________________________________________________________________________\n","conv1d_4 (Conv1D)               (None, 8000, 32)     1568        max_pooling1d[0][0]              \n","__________________________________________________________________________________________________\n","activation_2 (Activation)       (None, 8000, 32)     0           conv1d_4[0][0]                   \n","__________________________________________________________________________________________________\n","conv1d_5 (Conv1D)               (None, 8000, 32)     3104        activation_2[0][0]               \n","__________________________________________________________________________________________________\n","conv1d_3 (Conv1D)               (None, 8000, 32)     544         max_pooling1d[0][0]              \n","__________________________________________________________________________________________________\n","add_1 (Add)                     (None, 8000, 32)     0           conv1d_5[0][0]                   \n","                                                                 conv1d_3[0][0]                   \n","__________________________________________________________________________________________________\n","activation_3 (Activation)       (None, 8000, 32)     0           add_1[0][0]                      \n","__________________________________________________________________________________________________\n","max_pooling1d_1 (MaxPooling1D)  (None, 4000, 32)     0           activation_3[0][0]               \n","__________________________________________________________________________________________________\n","conv1d_7 (Conv1D)               (None, 4000, 64)     6208        max_pooling1d_1[0][0]            \n","__________________________________________________________________________________________________\n","activation_4 (Activation)       (None, 4000, 64)     0           conv1d_7[0][0]                   \n","__________________________________________________________________________________________________\n","conv1d_8 (Conv1D)               (None, 4000, 64)     12352       activation_4[0][0]               \n","__________________________________________________________________________________________________\n","activation_5 (Activation)       (None, 4000, 64)     0           conv1d_8[0][0]                   \n","__________________________________________________________________________________________________\n","conv1d_9 (Conv1D)               (None, 4000, 64)     12352       activation_5[0][0]               \n","__________________________________________________________________________________________________\n","conv1d_6 (Conv1D)               (None, 4000, 64)     2112        max_pooling1d_1[0][0]            \n","__________________________________________________________________________________________________\n","add_2 (Add)                     (None, 4000, 64)     0           conv1d_9[0][0]                   \n","                                                                 conv1d_6[0][0]                   \n","__________________________________________________________________________________________________\n","activation_6 (Activation)       (None, 4000, 64)     0           add_2[0][0]                      \n","__________________________________________________________________________________________________\n","max_pooling1d_2 (MaxPooling1D)  (None, 2000, 64)     0           activation_6[0][0]               \n","__________________________________________________________________________________________________\n","conv1d_11 (Conv1D)              (None, 2000, 128)    24704       max_pooling1d_2[0][0]            \n","__________________________________________________________________________________________________\n","activation_7 (Activation)       (None, 2000, 128)    0           conv1d_11[0][0]                  \n","__________________________________________________________________________________________________\n","conv1d_12 (Conv1D)              (None, 2000, 128)    49280       activation_7[0][0]               \n","__________________________________________________________________________________________________\n","activation_8 (Activation)       (None, 2000, 128)    0           conv1d_12[0][0]                  \n","__________________________________________________________________________________________________\n","conv1d_13 (Conv1D)              (None, 2000, 128)    49280       activation_8[0][0]               \n","__________________________________________________________________________________________________\n","conv1d_10 (Conv1D)              (None, 2000, 128)    8320        max_pooling1d_2[0][0]            \n","__________________________________________________________________________________________________\n","add_3 (Add)                     (None, 2000, 128)    0           conv1d_13[0][0]                  \n","                                                                 conv1d_10[0][0]                  \n","__________________________________________________________________________________________________\n","activation_9 (Activation)       (None, 2000, 128)    0           add_3[0][0]                      \n","__________________________________________________________________________________________________\n","max_pooling1d_3 (MaxPooling1D)  (None, 1000, 128)    0           activation_9[0][0]               \n","__________________________________________________________________________________________________\n","conv1d_15 (Conv1D)              (None, 1000, 128)    49280       max_pooling1d_3[0][0]            \n","__________________________________________________________________________________________________\n","activation_10 (Activation)      (None, 1000, 128)    0           conv1d_15[0][0]                  \n","__________________________________________________________________________________________________\n","conv1d_16 (Conv1D)              (None, 1000, 128)    49280       activation_10[0][0]              \n","__________________________________________________________________________________________________\n","activation_11 (Activation)      (None, 1000, 128)    0           conv1d_16[0][0]                  \n","__________________________________________________________________________________________________\n","conv1d_17 (Conv1D)              (None, 1000, 128)    49280       activation_11[0][0]              \n","__________________________________________________________________________________________________\n","conv1d_14 (Conv1D)              (None, 1000, 128)    16512       max_pooling1d_3[0][0]            \n","__________________________________________________________________________________________________\n","add_4 (Add)                     (None, 1000, 128)    0           conv1d_17[0][0]                  \n","                                                                 conv1d_14[0][0]                  \n","__________________________________________________________________________________________________\n","activation_12 (Activation)      (None, 1000, 128)    0           add_4[0][0]                      \n","__________________________________________________________________________________________________\n","max_pooling1d_4 (MaxPooling1D)  (None, 500, 128)     0           activation_12[0][0]              \n","__________________________________________________________________________________________________\n","average_pooling1d (AveragePooli (None, 166, 128)     0           max_pooling1d_4[0][0]            \n","__________________________________________________________________________________________________\n","flatten (Flatten)               (None, 21248)        0           average_pooling1d[0][0]          \n","__________________________________________________________________________________________________\n","dense (Dense)                   (None, 256)          5439744     flatten[0][0]                    \n","__________________________________________________________________________________________________\n","dense_1 (Dense)                 (None, 128)          32896       dense[0][0]                      \n","__________________________________________________________________________________________________\n","categorical_output (Dense)      (None, 2)            258         dense_1[0][0]                    \n","==================================================================================================\n","Total params: 5,807,954\n","Trainable params: 5,807,954\n","Non-trainable params: 0\n","__________________________________________________________________________________________________\n"],"name":"stdout"}]},{"cell_type":"code","metadata":{"id":"eJ
…
